results/modal_vqc_model.pth (torch, 13910 bytes, 30 tensors)

classical_input.weight f4 [3, 3]
-0.02618301 0.27859977 0.12329678 0.1262125 -0.2496177 0.05716479 0.396954 0.13704236
0.4315961
00000000: c07d d6bc a1a4 8e3e 0683 fc3d d93d 013e
00000010: c89b 7fbe a025 6a3d 8e3d cb3e d554 0c3e
00000020: 2afa dc3e

classical_input.bias f4 [3]
-0.49971768 -0.21841805 -0.32846928
00000000: ffda ffbe fba8 5fbe 202d a8be

batch_norm.weight f4 [3]
1.0099989 1.0099988 1.0099988
00000000: a547 813f a447 813f a447 813f

batch_norm.bias f4 [3]
0.009999971 -0.009999755 0.009999427
00000000: ebd6 233c 03d6 23bc a3d4 233c

batch_norm.running_mean f4 [3]
-7.987874 31.463678 95.64865
00000000: aa9c ffc0 9db5 fb41 1c4c bf42

batch_norm.running_var f4 [3]
613.8393 8667.202 77290.75
00000000: b775 1944 cf6c 0746 60f5 9647

quantum_layer.weight f4 [12]
0.06960278 0.06659126 0.055352338 -0.09647852 -0.040637277 0.017944366 0.08898038 -0.02030809
-0.006696795 -0.008052722 0.020651132 -0.097844064
00000000: e78b 8e3d 0061 883d 22b9 623d 8896 c5bd
00000010: 4673 26bd 1000 933c 583b b63d 275d a6bc
00000020: ca70 dbbb 90ef 03bc 902c a93c 7862 c8bd

quantum_layer._weights f4 [12]
0.06960278 0.06659126 0.055352338 -0.09647852 -0.040637277 0.017944366 0.08898038 -0.02030809
-0.006696795 -0.008052722 0.020651132 -0.097844064
00000000: e78b 8e3d 0061 883d 22b9 623d 8896 c5bd
00000010: 4673 26bd 1000 933c 583b b63d 275d a6bc
00000020: ca70 dbbb 90ef 03bc 902c a93c 7862 c8bd

output_layer.0.weight f4 [8, 2]
0.06732152 -0.28309402 -0.6856103 0.5602019 0.121990636 0.13786499 -0.5359381 -0.66378456
-0.6498492 -0.15993035 0.5570211 -0.54925466 -0.6669953 0.48382577 -0.5065076 -0.56070775
00000000: dddf 893d b3f1 90be 2884 2fbf 6469 0f3f
00000010: 3ad6 f93d 7b2c 0d3e 3d33 09bf c9ed 29bf
00000020: 845c 26bf c8c4 23be ef98 0e3f f49b 0cbf
00000030: 34c0 2abf 03b8 f73e 7baa 01bf 8b8a 0fbf

output_layer.0.bias f4 [8]
-0.38211584 0.6157057 -0.6333385 -0.5621238 -0.41858944 -0.65788203 -0.39382103 -0.31645194
00000000: b0a4 c3be e49e 1d3f 7922 22bf 58e7 0fbf
00000010: 5b51 d6be f56a 28bf e9a2 c9be fd05 a2be

output_layer.3.weight f4 [2, 8]
0.32972264 0.07757162 0.17783637 -0.1764304 -0.17333096 -0.15155213 0.08477775 0.28507048
0.1731628 0.121880166 0.13752364 0.3204454 -0.099111795 0.20150286 -0.0062777665 -0.3016424
00000000: 68d1 a83e dfdd 9e3d bd1a 363e 2caa 34be
00000010: ac7d 31be 7b30 1bbe f59f ad3d c2f4 913e
00000020: 9751 313e 4f9c f93d ffd2 0c3e 6b11 a43e
00000030: 20fb cabd c456 4e3e b9b5 cdbb df70 9abe

output_layer.3.bias f4 [2]
0.22843902 0.029624097
00000000: ebeb 693e 3cae f23c

exp_avg f4 [3, 3]
-0.00010118484 -8.9466575e-06 -1.0985136e-05 1.3113022e-06 -1.4984981e-07 -6.3955786e-06 8.516014e-07 -1.7248094e-07
-9.655953e-07
00000000: 3333 d4b8 9a19 16b7 cd4c 38b7 0000 b035
00000010: 67e6 20b4 9a99 d6b6 9a99 6435 3333 39b4
00000020: 9a99 81b5

exp_avg_sq f4 [3, 3]
1.0238373e-09 8.004268e-12 1.2067322e-11 1.7195135e-13 2.2454964e-15 4.0903426e-12 7.252249e-14 2.9749675e-15
9.323742e-14
00000000: 13b7 8c30 05d0 0c2d 634a 542d 9a99 412a
00000010: 19ce 2127 88ea 8f2c 5f4e a329 775e 5627
00000020: b7f3 d129

exp_avg f4 [3]
-2.1100277e-10 -7.9671734e-11 -2.3919712e-11
00000000: 0000 68af 3333 afae 6766 d2ad

exp_avg_sq f4 [3]
4.4522173e-21 6.347586e-22 5.721526e-23
00000000: 3433 a81d 11d8 3f1c 8856 8a1a

exp_avg f4 [3]
-0.00018032877 -5.9675618e-05 -6.2205356e-05
00000000: a316 3db9 354c 7ab8 3f74 82b8

exp_avg_sq f4 [3]
3.2518466e-09 3.5611794e-10 3.8695067e-10
00000000: 1777 5f31 25c7 c32f 77ba d42f

exp_avg f4 [3]
-0.00035042167 4.0960313e-05 -1.744628e-05
00000000: cdb8 b7b9 cdcc 2b38 9a59 92b7

exp_avg_sq f4 [3]
1.2279535e-08 1.6777472e-10 3.0437267e-11
00000000: f7f5 5232 6378 382f 51dd 052e

exp_avg f4 [12]
-8.802558e-06 -2.6004855e-07 6.58512e-07 4.2364332e-05 -3.1672157e-06 -4.763031e-06 -5.4442935e-05 7.779454e-07
-3.698602e-07 -6.327473e-05 -1.4121296e-06 -8.6418294e-07
00000000: b3ae 13b7 cd9c 8bb4 9ac4 3035 5bb0 3138
00000010: 5a8c 54b6 20d2 9fb6 a859 64b8 00d4 5035
00000020: 3391 c6b4 5db2 84b8 6788 bdb5 33fa 67b5

exp_avg_sq f4 [12]
7.748503e-12 6.7625247e-15 4.3363808e-14 1.7947366e-10 1.0031255e-12 2.2686464e-12 2.9640335e-10 6.051991e-14
1.36796575e-14 4.0036915e-10 1.9941098e-13 7.468122e-14
00000000: 2850 082d 48a5 f327 114b 4329 5855 452f
00000010: 682d 8d2b 4da4 1f2c 10f3 a22f 5a47 8829
00000020: 496e 7628 f31a dc2f 4d84 602a cb2a a829

exp_avg f4 [8, 2]
0.0 0.0 -0.00011024475 -0.00015497208 0.0 0.0 0.0 0.0
0.0 0.0 0.0 0.0 0.0 0.0 0.0 0.0
00000000: 0000 0000 0000 0000 3333 e7b8 0080 22b9
00000010: 0000 0000 0000 0000 0000 0000 0000 0000
00000020: 0000 0000 0000 0000 0000 0000 0000 0000
00000030: 0000 0000 0000 0000 0000 0000 0000 0000

exp_avg_sq f4 [8, 2]
0.0 0.0 1.2153906e-09 2.4016347e-09 0.0 0.0 0.0 0.0
0.0 0.0 0.0 0.0 0.0 0.0 0.0 0.0
00000000: 0000 0000 0000 0000 c10a a730 010a 2531
00000010: 0000 0000 0000 0000 0000 0000 0000 0000
00000020: 0000 0000 0000 0000 0000 0000 0000 0000
00000030: 0000 0000 0000 0000 0000 0000 0000 0000

exp_avg f4 [8]
0.0 -0.00026512146 0.0 0.0 0.0 0.0 0.0 0.0
00000000: 0000 0000 0000 8bb9 0000 0000 0000 0000
00000010: 0000 0000 0000 0000 0000 0000 0000 0000

exp_avg_sq f4 [8]
0.0 7.028939e-09 0.0 0.0 0.0 0.0 0.0 0.0
00000000: 0000 0000 3483 f131 0000 0000 0000 0000
00000010: 0000 0000 0000 0000 0000 0000 0000 0000

exp_avg f4 [2, 8]
0.0 0.0069641112 0.0 0.0 0.0 0.0 0.0 0.0
0.0 -0.0069641112 0.0 0.0 0.0 0.0 0.0 0.0
00000000: 0000 0000 3333 e43b 0000 0000 0000 0000
00000010: 0000 0000 0000 0000 0000 0000 0000 0000
00000020: 0000 0000 3333 e4bb 0000 0000 0000 0000
00000030: 0000 0000 0000 0000 0000 0000 0000 0000

exp_avg_sq f4 [2, 8]
0.0 4.849885e-06 0.0 0.0 0.0 0.0 0.0 0.0
0.0 4.849885e-06 0.0 0.0 0.0 0.0 0.0 0.0
00000000: 0000 0000 32bc a236 0000 0000 0000 0000
00000010: 0000 0000 0000 0000 0000 0000 0000 0000
00000020: 0000 0000 32bc a236 0000 0000 0000 0000
00000030: 0000 0000 0000 0000 0000 0000 0000 0000

exp_avg f4 [2]
0.010339356 -0.010345459
00000000: 6766 293c 0080 29bc

exp_avg_sq f4 [2]
1.0690228e-05 1.0702853e-05
00000000: 2e5a 3337 6790 3337
