results/modal_vqc_model.pth (torch, 7479 bytes, 16 tensors)

classical_input.weight f4 [3, 3]
000000 88 5b 9f 3d 87 39 ff be 87 fb c4 bd 0b a4 ad 3e
       0.0778113 -0.49848577 -0.096182875 0.33914217
000010 42 f3 16 3e 85 c0 a0 be c9 83 27 be d5 78 87 3e
       0.14741233 -0.3139688 -0.16358866 0.26459375
000020 54 a7 20 3d
       0.039222077

classical_input.bias f4 [3]
000000 3c a4 95 3e 70 cd 30 3e ce 0a 11 3f
       0.29226863 0.17265868 0.5665711

quantum_layer.weight f4 [12]
000000 d8 6e 3e 3d 21 c1 53 3c 47 eb ba bd fd 8f 00 bc
       0.046492428 0.0129244635 -0.09126907 -0.0078468295
000010 6f c0 9e 3c 7e 73 b4 3c 26 4e ff bc d0 ae e1 3c
       0.019378869 0.022027727 -0.031165194 0.027549177
000020 59 d9 a5 bc 2e c2 d1 bd 84 86 c8 3d 22 7a f6 3c
       -0.020245241 -0.10242115 0.09791282 0.030087534

quantum_layer._weights f4 [12]
000000 d8 6e 3e 3d 21 c1 53 3c 47 eb ba bd fd 8f 00 bc
       0.046492428 0.0129244635 -0.09126907 -0.0078468295
000010 6f c0 9e 3c 7e 73 b4 3c 26 4e ff bc d0 ae e1 3c
       0.019378869 0.022027727 -0.031165194 0.027549177
000020 59 d9 a5 bc 2e c2 d1 bd 84 86 c8 3d 22 7a f6 3c
       -0.020245241 -0.10242115 0.09791282 0.030087534

output_layer.weight f4 [2, 2]
000000 e5 20 a4 3d 49 51 9a 3e e2 a8 cd be c7 c1 b9 3e
       0.08014087 0.3014014 -0.4016791 0.36280653

output_layer.bias f4 [2]
000000 55 c6 e9 be 5d 60 24 3e
       -0.45659128 0.16052385

exp_avg f4 [3, 3]
000000 a6 e7 c8 bd c3 2d bb b9 22 61 84 b9 e3 f7 9e bc
       -0.098098084 -0.00035701515 -0.00025249372 -0.019405311
000010 3d d5 8b b8 c5 3c 4d b8 16 d6 9d b5 b4 2d 87 b5
       -6.667755e-05 -4.8932405e-05 -1.1759719e-06 -1.0071585e-06
000020 37 fc 01 b6
       -1.9369306e-06

exp_avg_sq f4 [3, 3]
000000 6e 44 7c 3a 6a f9 5a 32 cb 0d db 31 7b f1 1d 38
       0.0009623234 1.274598e-08 6.375307e-09 3.7656613e-05
000010 6c 6a f4 2f e8 a1 83 2f a9 b3 1b 2a 5b 6a e4 29
       4.445896e-10 2.3943802e-10 1.3829098e-13 1.0143684e-13
000020 b4 33 d3 2a
       3.7517006e-13

exp_avg f4 [3]
000000 88 95 ed b7 5b dc b1 b6 8b 6a d2 b3
       -2.8322233e-05 -5.300664e-06 -9.798267e-08

exp_avg_sq f4 [3]
000000 f8 64 b0 2e 20 b7 45 2c fa 5b 8a 26
       8.021489e-11 2.8097039e-12 9.600604e-16

exp_avg f4 [12]
000000 8a 97 3a b3 d0 62 8e b0 50 08 14 30 b9 91 20 b3
       -4.3444324e-08 -1.0359944e-09 5.38539e-10 -3.7385437e-08
000010 1f a3 93 b0 44 85 84 2f 67 5e b5 32 26 84 9b b0
       -1.074202e-09 2.410535e-10 2.1114102e-08 -1.1315293e-09
000020 db d8 0f 31 3a 8e e0 31 7b 43 e0 b0 a2 a2 e4 30
       2.0932507e-09 6.5354273e-09 -1.6317324e-09 1.6635406e-09

exp_avg_sq f4 [12]
000000 7d 9a 59 25 10 6c fd 1f c8 f5 08 1f f7 23 21 25
       1.8874092e-16 1.0732844e-19 2.9002426e-20 1.397671e-16
000010 ca 3a 08 20 72 85 db 1d 66 97 4d 24 76 28 17 20
       1.15391e-19 5.8106797e-21 4.458053e-17 1.2803585e-19
000020 2d 53 01 21 29 94 9d 22 54 2b 9d 20 46 5b a3 20
       4.381698e-19 4.2711806e-18 2.6625507e-19 2.7673674e-19

exp_avg f4 [2, 2]
000000 d9 5f 2e b4 2b 30 61 b3 d9 5f 2e 34 30 30 61 33
       -1.6239882e-07 -5.2430703e-08 1.6239882e-07 5.243072e-08

exp_avg_sq f4 [2, 2]
000000 4b 0a 3e 27 c4 77 9e 25 4b 0a 3e 27 cb 77 9e 25
       2.6373377e-15 2.7489787e-16 2.6373377e-15 2.7489806e-16

exp_avg f4 [2]
000000 e2 ab 66 b4 ea ab 66 34
       -2.148295e-07 2.1482961e-07

exp_avg_sq f4 [2]
000000 71 47 a6 27 7c 47 a6 27
       4.6151712e-15 4.615176e-15
