results/modal_vqc_model.pth (torch, 7479 bytes, 16 tensors)

classical_input.weight f4 [3, 3]
-0.21395327 -0.36529535 0.11946788 -0.2652598 0.32441264 -0.2916026 0.22922187 -0.26989117
0.119549
00000000: 9116 5bbe fe07 bbbe 93ab f43d 22d0 87be
00000010: 6a19 a63e f04c 95be 23b9 6a3e 2d2f 8abe
00000020: 1bd6 f43d

classical_input.bias f4 [3]
-0.15516244 -0.5220008 0.027505489
00000000: e7e2 1ebe d8a1 05bf 3153 e13c

quantum_layer.weight f4 [12]
0.020204876 0.095819466 0.03152646 0.021648914 0.015415896 -0.07654145 -0.009610288 0.08073649
-0.05532684 -0.04328415 -0.06878744 0.08669579
00000000: b284 a53c ff3c c43d e421 013d 1059 b13c
00000010: f492 7c3c c4c1 9cbd 7874 1dbc 2c59 a53d
00000020: 669e 62bd b94a 31bd 6ee0 8cbd 908d b13d

quantum_layer._weights f4 [12]
0.020204876 0.095819466 0.03152646 0.021648914 0.015415896 -0.07654145 -0.009610288 0.08073649
-0.05532684 -0.04328415 -0.06878744 0.08669579
00000000: b284 a53c ff3c c43d e421 013d 1059 b13c
00000010: f492 7c3c c4c1 9cbd 7874 1dbc 2c59 a53d
00000020: 669e 62bd b94a 31bd 6ee0 8cbd 908d b13d

output_layer.weight f4 [2, 2]
-0.50892204 0.5521079 -0.0062972554 0.45030987
00000000: b748 02bf f156 0d3f 3559 cebb 048f e63e

output_layer.bias f4 [2]
-0.61786044 -0.0563979
00000000: 1a2c 1ebf 7c01 67bd

exp_avg f4 [3, 3]
0.0 0.0 0.0 0.0 0.0 0.0 -0.09999833 -0.00039059503
-0.00040747292
00000000: 0000 0000 0000 0000 0000 0000 0000 0000
00000010: 0000 0000 0000 0000 edcb ccbd c7c8 ccb9
00000020: 17a2 d5b9

exp_avg_sq f4 [3, 3]
0.0 0.0 0.0 0.0 0.0 0.0 0.0009999666 1.5256447e-08
1.6603417e-08
00000000: 0000 0000 0000 0000 0000 0000 0000 0000
00000010: 0000 0000 0000 0000 5011 833a 480d 8332
00000020: 4d9f 8e32

exp_avg f4 [3]
0.0 0.0 -2.8861517e-05
00000000: 0000 0000 0000 0000 a31b f2b7

exp_avg_sq f4 [3]
0.0 0.0 8.329873e-11
00000000: 0000 0000 0000 0000 042d b72e

exp_avg f4 [12]
8.085984e-08 -2.587866e-07 -8.654962e-08 1.5919895e-06 -9.8989785e-09 4.1682014e-07 -7.3331976e-06 -2.5947608e-07
-1.14059866e-07 -4.634648e-06 -2.0202448e-08 4.933463e-08
00000000: 2ba5 ad33 5cef 8ab4 28dd b9b3 58ac d535
00000010: 2b10 2ab2 53c7 df34 b00f f6b6 1f4e 8bb4
00000020: 13f1 f4b3 5383 9bb6 a789 adb2 00e4 5333

exp_avg_sq f4 [12]
6.5383146e-16 6.6970508e-15 7.4908365e-16 2.5344307e-13 9.798978e-18 1.7373904e-14 5.377579e-12 6.7327833e-15
1.3009653e-15 2.1479966e-12 4.081389e-17 2.4339058e-16
00000000: 3f74 3c26 6449 f127 9ee8 5726 ffac 8e2a
00000010: 5ec2 3423 7f7d 9c28 ed34 bd2c f792 f227
00000020: 267d bb26 de26 172c 8938 3c24 1c4e 8c25

exp_avg f4 [2, 2]
-4.3957905e-05 -3.121691e-05 4.3957905e-05 3.121691e-05
00000000: 715f 38b8 e7ee 02b8 715f 3838 e7ee 0238

exp_avg_sq f4 [2, 2]
1.9322975e-10 9.744956e-11 1.9322975e-10 9.744956e-11
00000000: 5775 542f 3a4b d62e 5775 542f 3a4b d62e

exp_avg f4 [2]
-7.517483e-05 7.517483e-05
00000000: 2ea7 9db8 2ea7 9d38

exp_avg_sq f4 [2]
5.6512545e-10 5.6512545e-10
00000000: 2b57 1b30 2b57 1b30
